densenet201_params_config_0.npz (npz, 525862 bytes, 2 tensors)

linear_0_0.weight f4 [256, 512]
00000000: 1696 9bbc c419 24bd 6019 97ba 68fc 823b
00000010: 4803 dbbc e21a 09bd a007 31bc 164d bc3c
00000020: 00d7 5539 f813 1dbd 101d 01bb 56ca 9f3c
00000030: 56a5 94bc f946 053d c0ff f2bb c01d 2abc
00000040: 0085 b9bb 165b a6bc 044f bcbc e89d 5c3c
00000050: 9937 293d feb3 32bd bc0a 32bc 303e 2a3b
00000060: e458 1abc 5c1d 2b3c 0ea5 b7bc 88d6 51bc
00000070: 62e0 bf3c e654 acbc a0db 16bc 8402 5b3c
00000080: 4ffe 1bbd 28a2 1abc def5 60bc 9b66 123d
00000090: f87e d43b 3a47 b33c 0c45 643c df38 293d
000000a0: dcae fbbc 3e0d cb3c 0025 1239 962a 9bbc
000000b0: 85a4 02bd 4081 28bc 23af c0bc 1041 3cbb
000000c0: 88c7 9dbb 0229 c43c 184b cebb 44c7 2d3c
000000d0: f919 33bd 56ea 5cbc 8297 f93c 1d7e e2bc
000000e0: ebc6 303d cd0c adbc b32b 0b3d fad7 e43c
000000f0: 7877 403c ab35 013d a052 febc 3346 2e3d
00000100: 2cb5 c8bc f047 7fbc a03f d8ba 3e45 2dbd
00000110: 00aa ac3a 65ad afbc ad94 1e3d ad17 2b3d
00000120: 76d4 da3c 5d27 323d d431 56bc 1178 18bd
00000130: 7feb d7bc 0bb4 15bd 5003 0abb e8ae c73b
00000140: 001c dc3b a8d2 163c 704e 7a3c 803c f33a
00000150: 1b9c 1b3d 0878 88bb f879 d8bc c0e6 163a
00000160: 6c1f d0bc 44f4 683c 1465 3c3c 5307 87bc
00000170: 8594 2d3d ed4b 153d 869c fd3c f6ec dd3c
00000180: e982 273d b430 2fbc 2e7d ae3c 60cf 883c
00000190: 007f 23bb 5af9 7fbc d40b 233c 08ce ffbb
000001a0: 2ccc 103c 084d a3bb b2b2 92bc 9846 30bd
000001b0: 14bb 2c3c 9c69 34bc 5e71 9f3c a863 df3b
000001c0: 03b4 20bd 046e 30bd dd4e 1fbd deb6 c73c
000001d0: d947 283d 4e42 29bd 3a40 873c 82a1 d43c
000001e0: b48c 36bc 4536 123d b2c8 f63c 60df 473c
000001f0: 0e2b f2bc 4e78 06bd c97b c2bc c65c a2bc
00000200: e0b6 96ba 2c0f fcbc 882c 06bc d4f3 09bc
00000210: 16cc d83c 027f ebbc 5f26 323d 7731 ccbc
00000220: 1874 4f3c 0096 20bc 508c 2abd ed45 2f3d
00000230: b059 14bc 80bf 373a e0dd 91bb 05fe dabc
00000240: fe74 fe3c a0a1 01bd 6096 4abb 8893 d5bb
00000250: 531d 0e3d 002e 193b 8201 cc3c b619 16bd
00000260: c0df bdbb 9204 a83c ff58 31bd 4e94 b33c
00000270: 8b69 103d c86e 13bc 1d32 253d 1904 2d3d
00000280: e07f 29bb 24db 77bc c2b7 ef3c 697c 013d
00000290: 40ed 5c3c 2de7 28bd 944c 18bd 3dcf 97bc
000002a0: dddf 08bd 56ab 8cbc 3355 243d 0589 b4bc
000002b0: 405e 03ba 6596 1f3d d423 77bc 027c 813c
000002c0: 89d8 e6bc b12b 8ebc b471 6c3c 6d23 1f3d
000002d0: e61b d43c 6b5f 063d 746b 253c 985e 60bc
000002e0: b48a f4bc 00aa 543b 4c4f 2bbc d73f 1d3d
000002f0: fd09 233d 0025 16bc fc65 883c 4a65 aa3c
00000300: 3ade dd3c 318f 333d a04c ec3a 416c 89bc
00000310: fc7c 903c dbaa 2abd 3c8f 5c3c 8730 0e3d
00000320: a4c4 8fbc 94dd 213c 0be7 0d3d f664 ee3c
00000330: 69d3 cdbc 4c83 0dbc 381b 2ebc 552b 233d
00000340: d5fa 83bc ffe3 113d 33fa 2d3d cc2d f0bc
00000350: 0df1 2fbd 8c99 293c 4c2b f9bc 237b 033d
00000360: 6b47 0a3d e07c 77bb 1204 ad3c 9e67 ee3c
00000370: 70ab 263b 2238 24bd c1bd 113d 7d12 07bd
00000380: b815 133c a69b 9e3c 44fc 0ebc ea33 0abd
00000390: 3d02 11bd 9456 04bd 48d3 cfbb c0a0 7e3c
000003a0: 9813 c1bb 08b7 22bd 124a 9c3c 1527 08bd
000003b0: f6f6 9bbc f5b4 223d 9061 e1bb b2ec 1ebd
000003c0: 063b 8c3c 2b9c 81bc b1b6 323d d0c2 4bbb
000003d0: 4ddc 2b3d c660 1bbd 8a91 10bd b67d b9bc
000003e0: 6f6b abbc d27c debc 5326 15bd 7afa 9d3c
000003f0: 0d38 95bc d809 de3b bcc1 c8bc 529a f43c
-0.018992465 -0.040063635 -0.0011527948 0.0039973743 -0.026734963 -0.033472903 -0.010805041 0.022985976
0.00020393357 -0.03834912 -0.001970116 0.019505661 -0.018145245 0.032538388 -0.0074157417 -0.0103830695
-0.005661607 -0.020307105 -0.022986896 0.013465382 0.041312788 -0.043628685 -0.010866817 0.0025977008
-0.009420607 0.010444012 -0.022417571 -0.012807496 0.023422424 -0.021036576 -0.009207636 0.013367299
-0.038084324 -0.009438075 -0.013730494 0.035742383 0.0064848624 0.02188455 0.013932478 0.041314002
-0.030723028 0.024786588 0.00013937429 -0.018941205 -0.03189518 -0.010284722 -0.023521012 -0.0028725304
-0.0048150457 0.023945335 -0.006295573 0.010606591 -0.04372594 -0.013483604 0.030467752 -0.027648026
0.043158453 -0.021124268 0.03397722 0.027935017 0.011747234 0.031545322 -0.031045258 0.042547416
-0.024500452 -0.015581116 -0.0016498454 -0.042302363 0.0013173223 -0.021444986 0.038716007 0.041770626
0.026712637 0.04349457 -0.013073403 -0.03722388 -0.02635741 -0.036548655 -0.0021059103 0.0060938485
0.006717205 0.009205498 0.01527749 0.0018557459 0.03799067 -0.0041646995 -0.026425347 0.00057564303
-0.025405608 0.014218394 0.011498708 -0.016482985 0.042377967 0.03644936 0.030958425 0.02709053
0.04089633 -0.010692764 0.021299925 0.016700447 -0.0024947524 -0.015623415 0.0099515505 -0.0078065433
0.008837741 -0.004983548 -0.017907474 -0.043036073 0.01054265 -0.011011507 0.019463237 0.0068173
-0.039234173 -0.04307367 -0.03889357 0.02437919 0.041084144 -0.041323 0.016510118 0.02595592
-0.011141945 0.035696287 0.030124996 0.012199253 -0.029561546 -0.032829575 -0.023740666 -0.019819628
-0.0011498593 -0.030768953 -0.008189328 -0.00841995 0.026464503 -0.028747085 0.043493625 -0.02492593
0.012661956 -0.009801388 -0.04163772 0.042791296 -0.009054586 0.0007009432 -0.0044514984 -0.026732454
0.031061646 -0.03164828 -0.0030912384 -0.0065178312 0.034695935 0.0023373365 0.024903063 -0.036645614
-0.0057944953 0.020509992 -0.043297764 0.021921303 0.035256904 -0.00899858 0.040330995 0.042240236
-0.0025863573 -0.015127931 0.029262427 0.031612787 0.013484299 -0.04123609 -0.037182406 -0.018531436
-0.033416618 -0.017171543 0.040120315 -0.022037992 -0.0005011298 0.038961787 -0.015084226 0.015806202
-0.028179424 -0.017354818 0.014431406 0.038852144 0.02589221 0.03280584 0.01009642 -0.013694428
-0.029851295 0.003244996 -0.010455918 0.03839096 0.039804447 -0.009164095 0.016650192 0.020800252
0.027083505 0.04383773 0.0018028207 -0.016775252 0.017637722 -0.041666847 0.013461884 0.034714248
-0.01754982 0.0098794885 0.034644168 0.029100876 -0.025125222 -0.008637261 -0.010626607 0.039836247
-0.016110817 0.035617825 0.042474937 -0.029318713 -0.042954493 0.01035155 -0.030416153 0.032099854
0.033759516 -0.003776364 0.021120105 0.029102143 0.0025431775 -0.040092595 0.035581354 -0.032976616
0.008977346 0.019361328 -0.008727137 -0.033740915 -0.035402525 -0.03230913 -0.0063423254 0.0155412555
-0.0058922283 -0.039725333 0.019078288 -0.033240397 -0.019038659 0.039723355 -0.0068780854 -0.03879995
0.017117988 -0.015821537 0.04363126 -0.003109146 0.041958142 -0.037934087 -0.035295047 -0.022642951
-0.020925252 -0.027159128 -0.036413502 0.019284476 -0.018215204 0.006776076 -0.024506442 0.029858742

linear_0_0.bias f4 [256]
00000000: b0cc a23b 1be3 1abd 7e8c f4bc 6a25 a43c
00000010: dac9 da3c 30f6 47bb 458b 09bd 16d3 af3c
00000020: 76aa a53c 76d1 bd3c ebb0 2bbd 5457 3ebc
00000030: cc54 9ebc 0a4e e63c cd8f 133d 6d45 313d
00000040: 6f64 84bc 029a 86bc 2850 09bc db2a 17bd
00000050: 3889 81bc 3ed3 bb3c f8e2 a7bb 5000 a8bc
00000060: a0d2 abbb 904b a8bc 6049 e9bc 984d 9a3b
00000070: 620a 19bd f62c 08bd ced8 983c 732a f8bc
00000080: e69f b23c b8b1 8a3b d2b7 f43c 5a68 9d3c
00000090: 98a9 a93b a22c be3c c05c 183a 4a99 04bd
000000a0: 7bb0 0b3d 8e96 a83c c2e8 fd3c 9a4e 56bc
000000b0: 5d96 213d e0aa deba a8d7 eabc 19a6 2a3d
000000c0: f0c2 a7bc 6380 30bd 586f cdbb 6690 d93c
000000d0: ac30 953c b99a 113d 372c 053d 909c 543b
000000e0: 5c41 503c 580e 183c 0361 b4bc e0b3 11bd
000000f0: 5810 2cbd 4043 8f3c 01f3 323d 3e49 1abd
00000100: c880 20bc 6af8 e73c e5dc 18bd 848c 403c
00000110: 6777 a0bc 411e 9dbc 685d 893c 20c8 653b
00000120: 16ad a53c 90d3 b2bc 0868 39bc 1e1b a73c
00000130: 800f f039 ce06 ee3c cd4e 313d 66c6 bb3c
00000140: 05cc 1c3d dbfa 2fbd e1d2 e8bc a682 10bd
00000150: 401c 0bbd 5483 0bbd d0fa 6b3b 112d e3bc
00000160: 483b 7c3c b4b1 2a3c 915f eabc 4959 113d
00000170: 2604 c43c 6c2b 413c b33f 163d 7027 0fbd
00000180: b624 b1bc 5091 ef3b f3fe 313d d654 d53c
00000190: 4818 81bc 3c57 b8bc 3b38 1b3d 5ada b53c
000001a0: e2de ecbc 98d8 eabc ca50 f1bc 2ece fd3c
000001b0: b517 cdbc a3cb c1bc e8aa 4dbc dd81 a2bc
000001c0: 9223 843c 788a a4bb 2ca8 1cbc 62be 1ebd
000001d0: feb1 df3c 01ca 1abd 1746 1f3d c8eb ea3b
000001e0: 2068 9dbc 7548 e7bc de7e f23c 25dd 0c3d
000001f0: 764a 0abd d079 7bbb d725 153d 8056 8dbc
00000200: a0e3 d0bc 1204 b2bc 4934 97bc fc2d 25bd
00000210: 1815 893c f061 1cbb fa7f 21bd a48e b6bc
00000220: e15f a8bc fa7b d53c af8d 013d 7b6d 1a3d
00000230: 7013 69bb a00d dfbb ee08 07bd 40c7 ddbb
00000240: 1cd8 16bc 2450 943c 027d ad3c 92ff cf3c
00000250: bd19 abbc 6352 81bc 7082 b3bb 8681 b63c
00000260: 71c5 09bd 2c09 273c 3a6c 13bd 86c7 0cbd
00000270: 3b76 e1bc 42b0 fcbc 278f fbbc 16ad a73c
00000280: e4e2 343c 3659 00bd b783 10bd 44ee 0b3c
00000290: 1a8c d1bc ca05 a13c 3c34 3e3c 6d9a 173d
000002a0: be77 fbbc ce28 e43c 1bd8 013d 8e85 b03c
000002b0: 30be 8f3c da1c 24bd 486f 13bd ca49 e93c
000002c0: 053b 343d c04b adba 3a68 b13c a077 bf3a
000002d0: 40a3 cd3b cbc1 c1bc a66f ee3c 9e10 e83c
000002e0: 40e4 95bb 3eab f73c 2a57 fb3c 9e05 e43c
000002f0: faf0 6ebc 8e1b bb3c 803e daba 1c42 03bd
00000300: 4e50 2fbd 80ae 43bc de16 30bd 52c5 933c
00000310: b6db 9f3c 0ad6 d13c 50fb 16bb 34e8 513c
00000320: a382 2cbd ff50 adbc cae5 e9bc 2c45 2e3c
00000330: 8a33 9c3c 2c63 10bc 83d5 22bd f892 49bc
00000340: ded3 28bd 5cb1 483c 9ca7 5b3c 643e eabc
00000350: 227e 5bbc c0f8 d03a e1a0 0ebd 9bbd 063d
00000360: 00d8 6939 28fc 3b3c 74b8 06bc 107d 0bbd
00000370: b6fb db3c 5019 b1bc 109a a53b 441d 7b3c
00000380: d66d 11bd c87b 5cbc ccd5 0dbd 5c50 0ebd
00000390: d5c7 273d 3181 073d ce2f ab3c d079 f3bb
000003a0: 605d ebbc 6ddb 253d 00f0 2abd 6bcd 003d
000003b0: 329f b53c da8f f83c be28 e33c 0091 7139
000003c0: ec86 29bd b0a8 c2bb e8c3 81bb a228 fc3c
000003d0: 00c0 e3b9 fa92 1dbd 50a1 893b 80b5 ec39
000003e0: 88fb af3b 185d 953c a0eb bd3a 07f2 263d
000003f0: c71a 11bd 5322 0c3d 7f9f 26bd 57e0 b3bc
0.0049682483 -0.03781424 -0.029852148 0.020037372 0.026707578 -0.003051173 -0.033580083 0.021462958
0.020222884 0.023171168 -0.04191677 -0.0116175 -0.019327544 0.028113384 0.03602581 0.0432791
-0.016161172 -0.016430859 -0.008380927 -0.036906105 -0.015812501 0.022927877 -0.0051234923 -0.020507962
-0.0052436143 -0.020543844 -0.02847737 0.004708957 -0.037363417 -0.033246003 0.018658068 -0.030293679
0.021804761 0.0042326115 0.029872809 0.019214798 0.005177688 0.023214642 0.00058121607 -0.03237275
0.03410385 0.020579603 0.030994777 -0.0130802635 0.03945004 -0.001698818 -0.028667286 0.04166231
-0.020478696 -0.04309119 -0.0062693767 0.026558112 0.018211685 0.035547946 0.03251287 0.0032441951
0.012710895 0.009280764 -0.022018915 -0.035571933 -0.042007774 0.017488122 0.043688778 -0.037667505
-0.009796329 0.028316695 -0.037320036 0.011752252 -0.019588185 -0.019179465 0.016768172 0.003506191
0.020224135 -0.021829396 -0.011316307 0.020398673 0.00045787916 0.02905598 0.04328804 0.022921752
0.038280506 -0.042963844 -0.028420867 -0.035280846 -0.03396249 -0.03406079 0.003600765 -0.02773145
0.015394993 0.010418344 -0.028610023 0.03548554 0.02392776 0.011790138 0.036681842 -0.03494972
-0.02162395 0.007311024 0.04345603 0.02604143 -0.015758649 -0.022502534 0.037895422 0.022198845
-0.028914873 -0.028667733 -0.029457469 0.030982103 -0.025035718 -0.023656672 -0.012552954 -0.019837314
0.016130242 -0.0050213896 -0.00956158 -0.038755782 0.027306553 -0.037790302 0.038885202 0.0071692206
-0.01921469 -0.028232792 0.02960151 0.034390587 -0.033762418 -0.0038372166 0.03641304 -0.01725316
-0.025499165 -0.021730457 -0.018457549 -0.040327057 0.016733691 -0.0023862086 -0.03942869 -0.022284813
-0.020553531 0.026060093 0.03162926 0.037702065 -0.0035564564 -0.006807044 -0.0329675 -0.006768137
-0.009206798 0.01810462 0.021177772 0.02539042 -0.020886296 -0.015786355 -0.005478196 0.022278558
-0.03363556 0.010195058 -0.035991885 -0.034369968 -0.027522197 -0.030845765 -0.030707909 0.020468276
0.011040423 -0.03133508 -0.035281863 0.008540694 -0.025579501 0.01965608 0.011609133 0.037012506
-0.030696746 0.027851488 0.031700235 0.021548059 0.017546743 -0.040066577 -0.035994798 0.028477568
0.044001598 -0.0013221428 0.021656144 0.0014607795 0.0062755644 -0.023651978 0.029105972 0.028328236
-0.0045743287 0.030233022 0.030681212 0.02783471 -0.0145838205 0.022840288 -0.0016650707 -0.03204547
-0.042801194 -0.0119434595 -0.042990558 0.018038426 0.019513946 0.025614757 -0.0023037978 0.012811709
-0.042116772 -0.021156786 -0.028551955 0.010636609 0.019067544 -0.008812707 -0.039754402 -0.0123031065
-0.041217677 0.012249317 0.01340666 -0.028594203 -0.013396772 0.0015943274 -0.034821395 0.032895666
0.00022301078 0.011473693 -0.008222688 -0.034054816 0.026853424 -0.021618515 0.005053766 0.015326802
-0.03550514 -0.013457246 -0.03462772 -0.034744605 0.04096206 0.03308219 0.020896818 -0.0074302927
-0.028731048 0.040492464 -0.041732788 0.0314459 0.022170637 0.030342031 0.027729388 0.00023037568
-0.041388437 -0.0059405193 -0.0039601214 0.030781094 -0.00043439865 -0.038470246 0.004200138 0.00045148656
0.005370561 0.018232867 0.0014489777 0.04075816 -0.035425927 0.03421242 -0.04067945 -0.02195756
