densenet201_params_config_4.npz (npz, 132134 bytes, 2 tensors)

linear_4_0.weight f4 [128, 256]
0	0xbce35b80	-0.027753592
1	0xbb8d3f00	-0.0043104887
2	0xbd7e063a	-0.062017657
3	0x3d2c7bdc	0.04211031
4	0x3d59a462	0.053135283
5	0xbd5360f4	-0.051606134
6	0xbc53a838	-0.012918524
7	0xbccb79f0	-0.024838418
8	0x3d100b2c	0.035166904
9	0x3b8fcea0	0.0043886453
10	0x3d5a149e	0.05324232
11	0x3c7f8678	0.015596025
12	0x3a621f80	0.00086259097
13	0x3ca5bc78	0.02023147
14	0x3d7ed876	0.062218152
15	0x3d2df192	0.042466708
16	0x3d4621ba	0.048372008
17	0x3d57a068	0.05264321
18	0x3c18b170	0.009319648
19	0x3d0183a6	0.03161969
20	0xbd1bb594	-0.038014963
21	0x3c6914a8	0.014226116
22	0x3c390528	0.011292733
23	0x3d592428	0.053012997
24	0xbd10f998	-0.03539428
25	0xbd7c5942	-0.06160856
26	0x3d1e984c	0.03871946
27	0xbd2a2306	-0.041537307
28	0xba5bef80	-0.00083898753
29	0xbc65ead0	-0.014033034
30	0xbc8252fc	-0.01590871
31	0xbd413430	-0.04716891
32	0xbbb9ddf0	-0.005672209
33	0x3d19f210	0.037584364
34	0xbb7c7940	-0.003852442
35	0xbc25d0d0	-0.010120586
36	0xbc22a308	-0.009926565
37	0xbd46cfb8	-0.04853794
38	0x3d5cb4bc	0.0538833
39	0x3d4e252c	0.05032842
40	0x3ccfe184	0.025376089
41	0x3d6787b4	0.0565259
42	0x3c59f730	0.013303563
43	0xbb8443f0	-0.004036419
44	0xbc7b6930	-0.015344903
45	0x3cb75244	0.022378094
46	0x3cc7d2b0	0.024392456
47	0xbc52b9e8	-0.012861706
48	0x3bd70d50	0.0065628663
49	0x3d3a0d36	0.045422755
50	0xba9cc880	-0.0011961609
51	0x3d300b7c	0.042979702
52	0x3d7da5cc	0.061925694
53	0xbd137518	-0.03600034
54	0x3d3b1a56	0.045679413
55	0x3d101cb8	0.03518364
56	0xbd385666	-0.04500427
57	0x3a896000	0.0010480881
58	0x3d597156	0.0530866
59	0x3d431fec	0.047637865
60	0x3c3c4268	0.011490442
61	0xbcf9b5d4	-0.03048221
62	0x3cda7960	0.026669204
63	0xbd186c60	-0.03721273
64	0xbcc8dab0	-0.02451834
65	0x3a94c900	0.0011351407
66	0xbd3a20ec	-0.045441553
67	0x3c28aff8	0.0102958605
68	0xbae7d700	-0.0017687976
69	0x3d3c0a6c	0.045908377
70	0xbd4bc744	-0.04975058
71	0x3d4b51e8	0.04963866
72	0x3d45188e	0.04811912
73	0xbccbad2c	-0.024862848
74	0x3bba1880	0.00567919
75	0xbcb793cc	-0.022409342
76	0xbc4a1df8	-0.012336247
77	0xbd2e2146	-0.0425122
78	0xbc59fd58	-0.013305031
79	0xbd7303f6	-0.05932995
80	0x3ca4a024	0.020095892
81	0xbd429f6a	-0.04751531
82	0xbc1224e0	-0.0089199245
83	0x3ccfb584	0.025355108
84	0xb9b00b00	-0.00033577532
85	0x3c503e38	0.012710147
86	0x3ca67b14	0.02032236
87	0xbd16feec	-0.036864206
88	0xbc1cac40	-0.009562552
89	0x3d61d1e0	0.055131793
90	0xbb7dc820	-0.003872402
91	0xbd4d0a48	-0.050058633
92	0xbd1d3bd6	-0.038387142
93	0xbd552032	-0.052032657
94	0x3d672064	0.056427374
95	0xbcaf51a8	-0.021401241
96	0xbb85c260	-0.004082009
97	0xbcddf8fc	-0.027096264
98	0x3d381308	0.044940025
99	0x3bf88d20	0.007585183
100	0xbd51d406	-0.051227592
101	0xbd3bded8	-0.045866817
102	0x3c72b1a0	0.014812857
103	0xbd022d78	-0.031781644
104	0xbbb94530	-0.0056539997
105	0x3d29ef3c	0.041487917
106	0xbcde9328	-0.027169779
107	0x3d515f18	0.05111608
108	0xbb3def60	-0.002898179
109	0x3cff4190	0.031159192
110	0x3ccfafc8	0.025352374
111	0x3c2cad08	0.010539301
112	0xbd39bce6	-0.045346163
113	0xbd69637a	-0.056979634
114	0xbb81d160	-0.003961727
115	0xbba27a60	-0.004958436
116	0xbd303f70	-0.04302925
117	0x3c5e6c70	0.013575658
118	0x3d23c70a	0.03998474
119	0x3d22d824	0.03975691
120	0x3d5bb520	0.05363953
121	0x3beb6e00	0.007184744
122	0x3d7dc5b0	0.061956108
123	0xbcaf0448	-0.021364346
124	0xbd3963f4	-0.04526134
125	0x3d7d9d9e	0.061917894
126	0xbd043a7e	-0.032282345
127	0xbd4a1b00	-0.049342155
128	0x3d6b6ef0	0.057478845
129	0x3c63a2a0	0.013893753
130	0x3d15f594	0.036611155
131	0xbba3a5f0	-0.0049941465
132	0x3d7e2376	0.062045537
133	0xbc838f34	-0.016059496
134	0x3d5a424a	0.053285874
135	0x3d70eb9e	0.058818452
136	0x3d067458	0.032825798
137	0x3d617408	0.055042297
138	0x3c96a0b4	0.018387176
139	0xbd704e0a	-0.058668174
140	0xbd507102	-0.050889023
141	0x3c4ce118	0.012504838
142	0x3d2eb040	0.042648554
143	0x3c62f8b0	0.013853237
144	0xbcf754d0	-0.030191809
145	0x3981fe00	0.00024794042
146	0x3ca89998	0.020581052
147	0x3c85b9b8	0.01632391
148	0xbc853af4	-0.016263463
149	0xbc8c4b20	-0.017125666
150	0x3d086308	0.03329757
151	0xbd1bafbc	-0.03800939
152	0xbafd17c0	-0.0019309446
153	0x3d502b54	0.05082257
154	0xbd269bec	-0.040676042
155	0x3d25556a	0.04036466
156	0x3c58f9d0	0.013243154
157	0xbd648212	-0.055788107
158	0x3d1450ec	0.036209986
159	0x3d7e2098	0.062042803
160	0x3d29d7fa	0.041465737
161	0xbc3e15c0	-0.011601865
162	0x3c90cd0c	0.017675899
163	0x3d5fa2c4	0.054598585
164	0xbd5877f0	-0.052848756
165	0x3cd767ec	0.026294671
166	0x3d45cda0	0.048291802
167	0xbd6249ba	-0.055246092
168	0x3cc65428	0.02421005
169	0xbc90a88c	-0.017658494
170	0xbceb8a78	-0.02875255
171	0xba8a4840	-0.0010550097
172	0x3c9eef78	0.019401297
173	0xbcd81a30	-0.026379675
174	0xbd1416ae	-0.03615444
175	0xbd310c86	-0.043224834
176	0x3cde1840	0.027111173
177	0x3d4eeaf6	0.050517045
178	0xbd73580a	-0.059410132
179	0xbb9ff750	-0.004881777
180	0x3d15dd88	0.03658822
181	0xbc786148	-0.015159912
182	0xbd772914	-0.06034191
183	0xbcd1dbc4	-0.025617488
184	0x3d0cce0e	0.034376197
185	0xbd67f3ba	-0.05662892
186	0xbd53379e	-0.051566713
187	0x3cb37698	0.021907136
188	0xbb3053c0	-0.0026905388
189	0x3cd2e9a0	0.025746167
190	0x3d623204	0.05522348
191	0xbc0be9e8	-0.008539654
192	0x3c770220	0.01507619
193	0xbb836be0	-0.0040106624
194	0xbd14b636	-0.036306582
195	0x3c167c48	0.009184904
196	0xbd0377f6	-0.032096826
197	0xbc8c1104	-0.017097957
198	0x3d644d0e	0.055737548
199	0x3d12abd6	0.035808407
200	0x3d49ab06	0.049235366
201	0xbc228828	-0.0099201575
202	0xbc1ddc38	-0.009635024
203	0x3d54de8c	0.05197005
204	0x3d10901c	0.035293683
205	0x3d26d2e2	0.040728457
206	0x3c935b1c	0.01798778
207	0x3d0aaccc	0.0338562
208	0x3a8aa080	0.0010576397
209	0x3d3dd6da	0.046347477
210	0xbd1bcade	-0.038035266
211	0xbce30e68	-0.02771683
212	0x3d2ccd24	0.042187825
213	0xbcafd244	-0.021462567
214	0x3d523c00	0.05132675
215	0xbd5f09e6	-0.0544528
216	0x3d4628ca	0.048378743
217	0x3c708a90	0.014681473
218	0xbcff352c	-0.031153284
219	0xbd6d7890	-0.057976305
220	0xbd3b17fa	-0.045677163
221	0x3d02def4	0.031950906
222	0x3d034f0a	0.0320578
223	0x3d38e2c2	0.045138128
224	0xbd5482f8	-0.051882714
225	0xbd53162e	-0.051534824
226	0xbc600d00	-0.013674974
227	0xbd58f9de	-0.052972667
228	0xbd60d3be	-0.054889433
229	0xbd3c95b8	-0.04604122
230	0x3d122a10	0.035684645
231	0xbd2453d0	-0.040118992
232	0xbc573448	-0.013135023
233	0x3d1a207a	0.03762863
234	0xbc81dbcc	-0.015851878
235	0xbcbfbe40	-0.023406148
236	0x3d6be46e	0.057590894
237	0xbd3ddb2a	-0.04635159
238	0xbc89c7f4	-0.016818978
239	0x3d281070	0.0410313
240	0x3c8ffd8c	0.017576955
241	0xbcbe512c	-0.023232065
242	0x3d1365da	0.035985805
243	0x3ce53f24	0.02798421
244	0xbab3dfc0	-0.0013723299
245	0xbc777c48	-0.015105315
246	0xbd3eb7ce	-0.04656201
247	0x3ccb42f8	0.024812207
248	0x3d2f038e	0.042728
249	0x3d7dd82c	0.061973736
250	0xbc0f4078	-0.008743398
251	0xbbdaa990	-0.0066730455
252	0x3d198e78	0.037489384
253	0x3d3e5c74	0.04647489
254	0xbd2720d8	-0.040802807
255	0xbd2115a8	-0.039327294

linear_4_0.bias f4 [128]
0	0x3d3ebe1c	0.04656802
1	0x3b328e20	0.0027245358
2	0x3d3d1026	0.04615798
3	0xbd2b925a	-0.04188762
4	0x3c55fc88	0.013060696
5	0x3d46b688	0.04851392
6	0x3c95724c	0.018242978
7	0xbd4b1a4c	-0.049585626
8	0x3c1756b8	0.009236984
9	0xbc9d42b4	-0.019196846
10	0x3d5a0c9c	0.05323468
11	0xbcfe8654	-0.031069912
12	0x3b76e6e0	0.0037674233
13	0xbc7e0168	-0.015503265
14	0x3cfecf08	0.03110458
15	0x3d093cae	0.033505134
16	0x3b73ff20	0.0037230924
17	0x3b24d700	0.0025152564
18	0xbd2c6a66	-0.042093657
19	0x3bdc0830	0.006714843
20	0xbd09fa24	-0.03368582
21	0xbcbb3608	-0.022852913
22	0xbc971aa8	-0.018445328
23	0x3bf5e050	0.007503547
24	0x3cc2281c	0.023700766
25	0xbd489ed6	-0.048979603
26	0x3d1a4542	0.037663706
27	0x3d437720	0.04772103
28	0xbd16ebde	-0.036846034
29	0xbd195698	-0.037436098
30	0x3d465dba	0.04842923
31	0xbcaed574	-0.021342017
32	0xbd05679e	-0.03256952
33	0xbd37f896	-0.044914804
34	0xbd12abee	-0.035808496
35	0x3d383794	0.04497488
36	0xbd18ad70	-0.037274778
37	0x3cce9df4	0.025221802
38	0xbd58ec64	-0.052959815
39	0xbd5796be	-0.052633993
40	0x3a87c880	0.0010359436
41	0x3c384ca0	0.011248738
42	0xbd34a4f4	-0.044102624
43	0x3bcc9b00	0.0062440634
44	0x3d7fd038	0.062454432
45	0xbd587d1e	-0.052853696
46	0xbb6e4f20	-0.003636308
47	0x3bf903f0	0.0075993463
48	0xbc9366a4	-0.017993279
49	0xbd5def4e	-0.054183297
50	0x3bd6adb0	0.006551467
51	0xbd7317fc	-0.059349045
52	0xbc7426a8	-0.0149017945
53	0x3d5ddc52	0.054165192
54	0xbd47a6d2	-0.048743077
55	0x3cf65378	0.030069098
56	0xbc4f4478	-0.012650602
57	0xbccd28e8	-0.02504392
58	0xbd44b146	-0.048020624
59	0xbd41d2b8	-0.047320098
60	0xbc9dfe7c	-0.019286387
61	0x3d04ae84	0.032392994
62	0x3d2add4a	0.041714944
63	0xbd258dc4	-0.0404184
64	0x3ca2e1a8	0.019882992
65	0xbac68fc0	-0.0015149042
66	0x3d4b109c	0.049576387
67	0x3cff9ac4	0.031201728
68	0xbce32bb8	-0.027730808
69	0x3c9ba86c	0.019001208
70	0xbc6fc9d0	-0.014635518
71	0x3b6719e0	0.0035263225
72	0xbcd21724	-0.0256458
73	0x3cbccdf8	0.023047432
74	0xbbdc7de0	-0.0067288727
75	0xbd661528	-0.05617252
76	0xbc3f1148	-0.011661835
77	0xbc80572c	-0.015666567
78	0xbd7562fe	-0.05990886
79	0xbd18cf04	-0.0373068
80	0xbc8c6764	-0.017139144
81	0xbd3ae504	-0.045628563
82	0xbd5a4ed8	-0.053297848
83	0xbd0cf92c	-0.034417316
84	0x3d7d6d76	0.06187197
85	0x3d431d04	0.047635093
86	0x3cae68d0	0.021290213
87	0xbd62bcf8	-0.055355996
88	0x3c8d1d74	0.017225958
89	0x3cdd3e10	0.027007133
90	0x3d7bda0e	0.06148725
91	0xbd312186	-0.04324486
92	0x3d370a56	0.04468759
93	0x3d311cbe	0.0432403
94	0x3d3ab574	0.045583203
95	0xbc306020	-0.0107651055
96	0xbcd638a4	-0.026150055
97	0xbb849f80	-0.004047334
98	0xbd569c3a	-0.052395083
99	0xbd401974	-0.046899274
100	0xbbf267f0	-0.007397644
101	0x3d5cbfac	0.05389373
102	0x3cfbc890	0.030735284
103	0x3d15bf1a	0.0365592
104	0xbce6569c	-0.02811747
105	0x3d22970c	0.03969483
106	0x3c6f5330	0.014607236
107	0xbab64340	-0.001390554
108	0xbc897c2c	-0.016782843
109	0xbcdf1fc0	-0.02723682
110	0xbc04a7c8	-0.008096643
111	0x3c1ec250	0.009689882
112	0x3d1d6aa6	0.038431786
113	0xbd7f9f52	-0.0624078
114	0x3d30fa34	0.043207362
115	0x3abfd340	0.0014635101
116	0x3d38c932	0.04511375
117	0x3bd69e10	0.0065496042
118	0xbd29857e	-0.041387074
119	0xbce89a4c	-0.028393887
120	0x3d06a77a	0.03287456
121	0xbbc32370	-0.005955152
122	0xbcef1d90	-0.029188901
123	0x3ca88e54	0.02057568
124	0xbb5f5ca0	-0.0034082308
125	0x3cf96c00	0.030447006
126	0x3d5df734	0.05419083
127	0xbd1357b8	-0.035972327
