densenet201_params_config_0.npz (npz, 525862 bytes, 2 tensors)

linear_0_0.weight f4 [256, 512]
0	0xbcc62ac2	-0.02419031
1	0x3d192c57	0.0373958
2	0x3b7fa580	0.0039008558
3	0xbd30a4be	-0.04312586
4	0x3d158743	0.03650595
5	0x3c173114	0.00922801
6	0x3c85d182	0.016335253
7	0xbc22204c	-0.0098953955
8	0xbb2ca190	-0.0026341416
9	0x3cac03ee	0.020997968
10	0x3d26527b	0.040606003
11	0x3d1bf5a9	0.038076077
12	0x3ca7771a	0.020442534
13	0x3d18a011	0.037262026
14	0x3c5fe174	0.013664592
15	0xbd254971	-0.040353242
16	0x3ce7b35a	0.028283764
17	0x3cb7eb1a	0.022450972
18	0x3c8fbda4	0.017546482
19	0xbd2cb1ad	-0.042161632
20	0xbd25c0cf	-0.04046708
21	0x3af6c7c0	0.0018827841
22	0x3cbe35ea	0.023219068
23	0x3bd2c1c8	0.006431792
24	0xbba217b8	-0.004946675
25	0x3d1daf29	0.038497124
26	0x3cd8a086	0.026443731
27	0xbd147e7f	-0.03625345
28	0x3ca01be6	0.019544553
29	0xbcc6e1a5	-0.024277518
30	0x3d01b4e1	0.03166664
31	0x3c3abf7c	0.0113981925
32	0xbc227344	-0.009915177
33	0x3d246875	0.04013868
34	0x3ba3b2d0	0.0049956813
35	0x3cf2915a	0.029610325
36	0x3d25429f	0.040346738
37	0xbd27d151	-0.040971104
38	0xbbae02f8	-0.0053104125
39	0xbd1bad8f	-0.038007315
40	0x3c74d6e4	0.014943812
41	0xbcc13b09	-0.02358772
42	0xbafb65e0	-0.0019180141
43	0x3c04af1c	0.00809839
44	0x3ce56b92	0.028005395
45	0xbcdb7c79	-0.026792752
46	0x3cc7a4e2	0.024370614
47	0x3babcff0	0.005243294
48	0x3c8bdb62	0.017072383
49	0xbca9d8b4	-0.020733215
50	0x3d1de393	0.03854711
51	0xbaf62b40	-0.00187812
52	0x3d349fd5	0.04409774
53	0xbc9214bf	-0.017832158
54	0x3bcc5cd0	0.00623665
55	0xbd2abaae	-0.041681938
56	0x3cc8018a	0.024414796
57	0xbd2a4992	-0.04157407
58	0xbb935520	-0.0044962317
59	0xbcba959d	-0.02277642
60	0xbcc42114	-0.023941554
61	0xbc0276cc	-0.007962894
62	0x38c4f000	9.390712e-05
63	0xbcbe4825	-0.02322776
64	0xbc728dfc	-0.0148043595
65	0x3c806c44	0.015676625
66	0x3d3059bd	0.04305433
67	0x3cb460fe	0.022018906
68	0xbd1fbca8	-0.038998276
69	0x3d05e9d7	0.03269371
70	0x3aa272c0	0.0012393817
71	0x3c0e99e4	0.008703683
72	0x3a73f640	0.00093064085
73	0x3cdc2b2a	0.026876051
74	0x3cf95a3e	0.030438539
75	0xbd1a7c0c	-0.037715957
76	0xbbe3f008	-0.006956104
77	0x3c8680ce	0.01641884
78	0x3ad97660	0.0016591065
79	0x3c7c9708	0.015416868
80	0xbd068dfd	-0.032850254
81	0xbcbbc7e7	-0.02292247
82	0xbd2cd5d7	-0.04219612
83	0x3cf5b71e	0.029994544
84	0xbc99620c	-0.01872351
85	0x3d068d25	0.03284945
86	0x3d2f7745	0.042838354
87	0xbd3082d0	-0.043093503
88	0xbcc18362	-0.023622219
89	0xbc944a52	-0.018101845
90	0x3c5ee12c	0.01360349
91	0xbd1d83ca	-0.038455762
92	0xbd159f7d	-0.036529053
93	0xbd05f18d	-0.032701064
94	0xbd22a96e	-0.039712362
95	0xbceddbdc	-0.029035501
96	0x3b8f90a0	0.0043812543
97	0xbb875788	-0.0041303076
98	0xbcffb81a	-0.031215716
99	0x3c4b09a0	0.0123924315
100	0xbc5e23e4	-0.013558362
101	0x3d23be1b	0.03997622
102	0x3b9419a8	0.00451966
103	0x3cc57536	0.024103742
104	0x3c452ff0	0.012035355
105	0xba843500	-0.0010086596
106	0x3d117ab7	0.03551742
107	0x3a8fbb60	0.0010965876
108	0x3c27559c	0.010213282
109	0x3c3ff358	0.0117157325
110	0x3cfa540e	0.030557659
111	0xbbbcd7d8	-0.0057630353
112	0xbbae37a0	-0.0053166896
113	0xbc517bc4	-0.012785856
114	0x3c6d6ad4	0.014490802
115	0x3c406e6c	0.011745077
116	0x3d21a7f3	0.03946681
117	0x3d180f27	0.037123825
118	0xbc630520	-0.013856202
119	0xbd06724d	-0.03282385
120	0x3cc3ab2a	0.023885328
121	0xba66b6c0	-0.00088010356
122	0xbd2164ee	-0.039402895
123	0xbcb59114	-0.022163905
124	0x3d25ed97	0.040509786
125	0xbd2df418	-0.042469114
126	0x3c9dc35a	0.01925819
127	0xbcf95974	-0.030438162
128	0xbd2c10c9	-0.042008195
129	0xbcf0d42d	-0.029398048
130	0x3d264b13	0.04059894
131	0xbc14ff70	-0.009094104
132	0x3c946dec	0.018118821
133	0xbd0dab97	-0.03458747
134	0x3c673748	0.014112301
135	0xbcdcd37c	-0.026956312
136	0xbd12ffec	-0.035888597
137	0x3d044f93	0.03230245
138	0x3d228385	0.039676208
139	0x3bb4e3d8	0.005520325
140	0xbd1436b8	-0.036184996
141	0xbc2993ec	-0.010350209
142	0x3c8e35a6	0.017359566
143	0xbcc5f4eb	-0.024164638
144	0xbc58a766	-0.013223505
145	0x3c95437a	0.018220652
146	0xbcb6038a	-0.022218484
147	0xbca62a68	-0.020283893
148	0x3d08f4e9	0.03343669
149	0xbcac0981	-0.021000626
150	0x3cefd5fa	0.029276837
151	0x3cab0576	0.020876627
152	0xbc7263de	-0.014794318
153	0x3cd92e2e	0.026511278
154	0x3b5521c0	0.0032521337
155	0x3c87a080	0.016556025
156	0x3cf07f76	0.029357653
157	0xbcd7d6a3	-0.026347464
158	0xbc082130	-0.008308694
159	0x3cdbe44a	0.026842255
160	0x3c317978	0.010832183
161	0x3c8a7026	0.01689918
162	0x3cfc1ee2	0.030776445
163	0x3d266605	0.040624637
164	0x3cd0d246	0.025490891
165	0x3c54f2c0	0.012997329
166	0xbd086f53	-0.033309292
167	0xbba84258	-0.005134862
168	0xbc6e60cc	-0.014549445
169	0x3d12b64d	0.035818387
170	0xbd31fb4b	-0.043452542
171	0x3d04831d	0.032351602
172	0x3b93b2b0	0.004507385
173	0xbd2dcc13	-0.04243095
174	0x3d0a299b	0.033731084
175	0xbcb5f4ab	-0.022211393
176	0xbcb2a802	-0.021808628
177	0x3cfd4a7e	0.03091931
178	0x3d22798d	0.0396667
179	0x3c91db06	0.017804634
180	0x3cd916e6	0.026500177
181	0xbd1fd7c3	-0.039024126
182	0xbcc60808	-0.024173751
183	0x3b94d818	0.004542362
184	0xbd1ecaba	-0.038767554
185	0xbcd6ab60	-0.026204765
186	0xbcc16ba9	-0.023610907
187	0x3c6b88d0	0.01437588
188	0xbc2c15e0	-0.010503262
189	0xbd07b152	-0.03312809
190	0xbc8f86cb	-0.017520329
191	0x3c36ee34	0.0111651905
192	0x3d124b4d	0.035716344
193	0xbbf760c8	-0.007549379
194	0x3c2008e0	0.009767741
195	0x3ba58580	0.005051315
196	0xbd1bbb0e	-0.038020186
197	0x3b661490	0.003510747
198	0xbcee8d4f	-0.029120116
199	0x3c885042	0.016639832
200	0x3c420fa4	0.011844549
201	0xbcc687eb	-0.024234733
202	0x3d1927cf	0.03739148
203	0xbca14c49	-0.019689696
204	0xbd1c25af	-0.038121875
205	0xbc8268b0	-0.01591906
206	0xbcd5818b	-0.026062747
207	0xbc2d6080	-0.010582089
208	0xbc4d6f10	-0.012538686
209	0xbcd646e1	-0.026156845
210	0x3c631f30	0.013862416
211	0xbc43a6a0	-0.011941582
212	0x3d29aea7	0.041426327
213	0x3c1bcad0	0.0095088035
214	0x3bbaa900	0.005696416
215	0xbd212ca4	-0.039349213
216	0x3c38d8dc	0.011282172
217	0xbd021d0a	-0.031765975
218	0xbcee13aa	-0.02906211
219	0xbb55cda0	-0.0032623783
220	0x3d2343d9	0.039859626
221	0x3cb45ed6	0.022017878
222	0xbca3945e	-0.019968208
223	0xbd1bf1aa	-0.038072266
224	0x3cf6370a	0.030055542
225	0x3bc15910	0.0059005097
226	0x3b348180	0.0027543008
227	0x3ce5dc5a	0.028059173
228	0x3c280d00	0.010257006
229	0x3d0de30f	0.034640368
230	0xbc9689f6	-0.018376332
231	0xbd12e1d5	-0.0358599
232	0x3c682584	0.014169101
233	0x3c060504	0.008179907
234	0xba7f40c0	-0.00097371265
235	0xbd03b57c	-0.0321555
236	0xbd040db7	-0.032239642
237	0xbcf51700	-0.029918194
238	0xbcb8c5bb	-0.022555223
239	0x3d3201a3	0.043458592
240	0xbd07b8c0	-0.033135176
241	0xbca79633	-0.020457363
242	0xbb918b88	-0.0044416822
243	0x3a96e6e0	0.0011512898
244	0x3cbe43f2	0.023225758
245	0xbcd0374a	-0.025416989
246	0x3d1c3e21	0.03814519
247	0x3c4f89f4	0.012667168
248	0xbce8d446	-0.028421532
249	0xbc2f6d74	-0.010707248
250	0x3cb8b252	0.022545967
251	0xbb6566c0	-0.003500387
252	0x3cc0f4f6	0.023554306
253	0x3ba6d4d8	0.005091291
254	0xbabcb960	-0.0014398508
255	0xbcb49f42	-0.022048596

linear_0_0.bias f4 [256]
0	0x3c5d8384	0.013520125
1	0xbd2ff258	-0.042955726
2	0xba492040	-0.0007672347
3	0xbba70700	-0.00509727
4	0xbcc7bb82	-0.024381403
5	0x3c87d48a	0.016580839
6	0xbc9ffea1	-0.019530596
7	0x3a33c7c0	0.0006858073
8	0x3cb333e6	0.021875333
9	0x3cbc8642	0.023013238
10	0xbc95bb08	-0.01827766
11	0xbc4afc30	-0.012389228
12	0xbd0a274c	-0.033728883
13	0xbc42d7c0	-0.011892259
14	0xbd17809e	-0.036987893
15	0xbd30e0da	-0.043183185
16	0x3d1fe57b	0.03903721
17	0xbc83013f	-0.015991805
18	0xbd16fdc2	-0.036863096
19	0x3ce2deaa	0.027694065
20	0xbbf7d278	-0.0075629316
21	0x39ba5b00	0.00035544485
22	0x3c67f420	0.014157325
23	0xbc1f9048	-0.009738989
24	0xbb166aa0	-0.0022951737
25	0x3af794a0	0.0018888898
26	0x3cae539a	0.021280099
27	0xbd033173	-0.03202958
28	0x3c882a54	0.016621746
29	0x3bd4fac8	0.006499622
30	0xbc38de3c	-0.011283454
31	0x3d0b1989	0.0339599
32	0xbbadf800	-0.005309105
33	0x3bfee9a8	0.007779319
34	0x3ca3cd4e	0.019995358
35	0x3cec79ea	0.028866727
36	0xbc4ec258	-0.012619577
37	0xbc499e5c	-0.012305822
38	0x3b9ca1e8	0.004780043
39	0xbb6e0360	-0.003631793
40	0x3d15d657	0.036581364
41	0x3c9bb8ee	0.01900908
42	0xbced6176	-0.028977137
43	0x3c5881d4	0.013214547
44	0x3d186063	0.037201297
45	0x3bff7d00	0.0077968836
46	0xbd254794	-0.040351465
47	0xbc70ca1a	-0.014696622
48	0xbbd57c10	-0.0065150335
49	0xbbc5a6e0	-0.006031856
50	0xbcb11125	-0.02161462
51	0xbca34389	-0.019929664
52	0xbbea30d0	-0.007146932
53	0xbcad1aca	-0.021130938
54	0xbc8e57ff	-0.017375944
55	0xbca6ee57	-0.020377321
56	0xbcc314d2	-0.023813639
57	0x3d1a9e9d	0.03774892
58	0x3d04e861	0.032448176
59	0x3d2c1291	0.042009894
60	0x3c45aa3c	0.012064513
61	0xbbdf40c0	-0.0068131387
62	0xbbf03b60	-0.007331297
63	0x3d12d20f	0.03584486
64	0x3af66100	0.0018797219
65	0x3d194f9b	0.037429433
66	0xbd026fd2	-0.03184492
67	0xbc3dac44	-0.011576716
68	0xbc78f4a4	-0.015195046
69	0xbb928010	-0.0044708326
70	0xbd14b518	-0.036305517
71	0x3d1cc0bd	0.038269747
72	0xbd2d5107	-0.0423136
73	0xbcc4d43b	-0.02402698
74	0x3c2f5180	0.010700583
75	0x3c0bf4dc	0.008542266
76	0xbcd2a410	-0.025712997
77	0xbd240322	-0.04004205
78	0x3c9c2e86	0.019065153
79	0xbb01c330	-0.0019800179
80	0xbcbccc27	-0.023046566
81	0x3ca48212	0.020081554
82	0x3bd4ea90	0.0064976886
83	0xbc5a2e36	-0.013316682
84	0x3c4cf8d4	0.012510497
85	0xbd1fd115	-0.039017756
86	0xbd1ab16e	-0.037766866
87	0x3c48312c	0.012218755
88	0xbc473804	-0.012159351
89	0x3d348589	0.04407266
90	0xbb1135b0	-0.0022157244
91	0xbbf00250	-0.0073244944
92	0x3d2086a5	0.039190907
93	0x3d038951	0.032113377
94	0xbbeca1a0	-0.0072214156
95	0x3b5fb850	0.0034136958
96	0x3b57ea30	0.0032945983
97	0xbd01d168	-0.031693846
98	0x3bf7f660	0.007567212
99	0xbd261ae0	-0.040552974
100	0x3d1b446d	0.037907053
101	0xbc202d8c	-0.009776484
102	0xbb92a8f8	-0.004475709
103	0xbbae6f40	-0.0053233206
104	0xbbc1fac8	-0.005919788
105	0xbd1cc5da	-0.038274623
106	0xbcfca0ac	-0.030838333
107	0x3d21cca3	0.039501797
108	0xbba0d750	-0.0049084798
109	0xbd0e9996	-0.03481444
110	0x3d1ab0a1	0.037766103
111	0xba9f2400	-0.0012141466
112	0xbd153525	-0.036427636
113	0xbc9757d1	-0.018474491
114	0x3d111b1f	0.035426255
115	0xbc115a98	-0.008871697
116	0xbc8185b8	-0.015810832
117	0x3cd976ee	0.026545968
118	0xbc3625d8	-0.011117421
119	0xbd0af2b1	-0.033922855
120	0xbc70c072	-0.01469432
121	0x39e96e80	0.00044523552
122	0x3d10314f	0.035203274
123	0x3cb99c9e	0.022657689
124	0xbc76086e	-0.015016658
125	0x3d30cd5b	0.043164592
126	0x3d1d63fd	0.038425434
127	0x3d04faa1	0.03246558
128	0xbc9df3c2	-0.019281272
129	0x3c28bfe4	0.010299657
130	0xbbac2200	-0.0052530766
131	0x3cb3a3de	0.021928724
132	0xbc756560	-0.014977783
133	0xbc88c32d	-0.01669463
134	0xbca444c1	-0.020052316
135	0xbd0c8373	-0.034305047
136	0x3c2114a8	0.009831585
137	0xbd27a15e	-0.040925376
138	0x3d0f1695	0.034933645
139	0xbd204d4a	-0.03913621
140	0x3c16abc4	0.009196226
141	0x3c754fc4	0.014972631
142	0x3ce2e98e	0.027699258
143	0xbada16a0	-0.0016638823
144	0xbc5d1dcc	-0.013495874
145	0x3d1c22b7	0.038119044
146	0xbcd01fe9	-0.025405841
147	0x3ce2aeae	0.027671184
148	0xbb84b4f0	-0.0040498897
149	0xbd2def7c	-0.04246472
150	0x3c8d0296	0.017213147
151	0xbc4553d8	-0.012043916
152	0x3d230db1	0.03980798
153	0xbca02e4b	-0.019553324
154	0x3c630d38	0.013858132
155	0x3cf7e68a	0.030261297
156	0xbaf715e0	-0.0018851124
157	0xbc83f71f	-0.016109047
158	0x3d018321	0.031619195
159	0xbcc3244f	-0.023821024
160	0x3c24fae4	0.010069583
161	0xbb428ca0	-0.002968587
162	0xbd11d90e	-0.03560739
163	0x3aeeb7c0	0.0018212721
164	0x3882b800	6.233156e-05
165	0xbc7643ea	-0.01503084
166	0xbd0ffdef	-0.03515428
167	0xbc6375a6	-0.01388303
168	0xbba7d990	-0.005122371
169	0xbcf2a1f6	-0.029618245
170	0x3c64c9e0	0.013964146
171	0x3d0aeca1	0.033917073
172	0xbd11288e	-0.035439067
173	0xbb8ac4b0	-0.0042348728
174	0x3d279593	0.04091413
175	0xbb957580	-0.004561126
176	0x3d0dbc51	0.03460342
177	0x3cca5f26	0.024703573
178	0xbcb2f0d1	-0.021843346
179	0xbcba3a09	-0.022732751
180	0x39a42f00	0.00031315535
181	0xbd08c9a2	-0.033395417
182	0x3cb4a952	0.022053394
183	0x3c31855c	0.010835018
184	0x3c4c8710	0.012483373
185	0xbcff57e0	-0.031169832
186	0xbc551dcc	-0.013007592
187	0x3d1fc4d3	0.039006066
188	0x3b4b24f0	0.0030997358
189	0x3ccf8d4a	0.025335927
190	0x3ced4072	0.028961394
191	0xbcf97faf	-0.030456392
192	0xbc4b9290	-0.01242508
193	0x3d22d335	0.039752204
194	0x3c7a6b08	0.015284307
195	0xbd2eafdd	-0.042648185
196	0x3c4c457c	0.012467738
197	0x3c07f804	0.008298878
198	0xbc7be3f6	-0.015374174
199	0xbd30e4e4	-0.043187037
200	0x3bbcc9a8	0.005761344
201	0x3a9d94c0	0.001202248
202	0x3cc4e80e	0.024036434
203	0x3ca1a0b6	0.019729953
204	0xbcccdd12	-0.025007758
205	0xbc0b4350	-0.008499935
206	0x3d332adb	0.043742042
207	0x3ac3f7a0	0.0014951117
208	0xbc08c090	-0.008346692
209	0x3ce86f12	0.028373275
210	0x3cc51552	0.024058018
211	0xbcf280a3	-0.029602354
212	0x3d0dded5	0.034636337
213	0xbcf3628f	-0.029710082
214	0xbd04dde7	-0.032438185
215	0x3ccff8ea	0.025387246
216	0x3d18ece3	0.037335288
217	0x3bed44a8	0.0072408505
218	0x3bdce960	0.0067416877
219	0x3cf2a9ca	0.029621977
220	0xbceade62	-0.028670494
221	0x3c5a64f0	0.013329729
222	0x3ca6422a	0.020295221
223	0x3b01baa0	0.0019795075
224	0xbba3ff88	-0.005004827
225	0xbd08c334	-0.033389285
226	0x3c3e1b54	0.011603195
227	0x3c9a41f6	0.01883028
228	0x3d11e203	0.035615932
229	0x3c9cd82e	0.019146051
230	0xbc698904	-0.0142538585
231	0xbb0a26c0	-0.0021080226
232	0xbcb74c2b	-0.022375187
233	0x3cbfe37e	0.023423906
234	0xbd025f36	-0.03182908
235	0xbc2a36f8	-0.010389082
236	0xbd3297a9	-0.043601666
237	0xbd08c0b8	-0.033386916
238	0x3ac5e620	0.001509849
239	0x3ca4f68e	0.020137098
240	0x3cb88b72	0.02252743
241	0xbcd3bea1	-0.025847735
242	0x3cd7682e	0.026294794
243	0xbc9437cd	-0.018093014
244	0x3cc04032	0.02346811
245	0xbcc7f9e6	-0.024411153
246	0xbcdb096c	-0.026737891
247	0xbcb10879	-0.021610485
248	0x3cbcb21e	0.023034152
249	0xbb665bd0	-0.003514994
250	0xbc9be09c	-0.019028
251	0xbbf828d0	-0.0075732246
252	0xbc11aea4	-0.008891735
253	0xbc9a1ab1	-0.018811556
254	0x3cc52ac6	0.024068248
255	0xbd2106c7	-0.039313104
