densenet201_params_config_4.npz (npz, 132134 bytes, 2 tensors)

linear_4_0.weight f4 [128, 256]
000000 c0 ef c6 bb b2 f6 61 bd e0 9e 33 bc 1a 35 3b bd
       -0.006071061 -0.055166908 -0.010963172 -0.04570494
000010 60 a4 9d bc c0 f0 43 bb 2c 5d 67 bd ea 89 36 3d
       -0.01924342 -0.0029898137 -0.05648534 0.04456512
000020 ee c2 19 bd e0 da 4d bb d8 fb 68 3c 9e f3 4c 3d
       -0.037539415 -0.0031410977 0.0142202005 0.05003702
000030 80 ef 61 3b 70 6d eb bc cc 7e 80 3c b8 8e 76 3d
       0.0034475029 -0.028738707 0.015685461 0.0601947
000040 bc e6 7b bd 6c 19 dc bc 56 2b 03 bd 70 6a 38 bd
       -0.061499342 -0.02686759 -0.03202375 -0.04502338
000050 e8 39 5f bd f8 d4 2f bc ec 9a 30 3d f0 5c 5f 3d
       -0.054498583 -0.010731928 0.043116495 0.05453199
000060 86 b3 10 bd 48 a5 dc 3c ac 7f c3 bc 80 b9 37 3a
       -0.035327457 0.026934281 -0.02386459 0.00070085377
000070 4e cb 18 3d 2c 18 00 3d 18 a9 08 3c 10 fe b1 bc
       0.03730326 0.031273052 0.008341096 -0.021727592
000080 68 a9 e1 bc 0c 63 c3 bc c4 fd 70 3d 40 14 b1 3b
       -0.0275466 -0.02385094 0.05883576 0.0054040253
000090 7a 1e 5a 3d c6 3c 48 3d a6 74 79 bd 2c 46 7e bd
       0.05325172 0.048886083 -0.06090226 -0.06207864
0000a0 8e f3 1a 3d b8 90 65 3c 9c 32 17 bd 20 c3 2e 3c
       0.037829928 0.014011554 -0.0369135 0.010666639
0000b0 9c c4 3c bd cc cd 5b 3d cc f4 6f bd 54 a3 d2 bc
       -0.04608594 0.05366306 -0.058583066 -0.025712647
0000c0 fa 17 37 3d a8 92 36 3d ce b0 78 bd 0e d1 76 3d
       0.0447006 0.044573456 -0.06071549 0.060257964
0000d0 58 a6 cd 3c 00 95 8e bb ee fb 44 bd 42 10 15 bd
       0.025103733 -0.0043512583 -0.04809182 -0.036392458
0000e0 78 d5 17 bc b2 62 61 3d a0 8f 23 bd 98 b9 10 3d
       -0.0092672035 0.055025764 -0.039931893 0.035333246
0000f0 78 46 fc bc 3c 91 1d bd a0 98 32 bb 00 c0 59 3b
       -0.03079532 -0.038468584 -0.0027251616 0.0033226013
000100 40 44 c5 bc 40 82 1e bb d8 6f da bc 98 a4 6d bd
       -0.024080396 -0.0024186522 -0.02666466 -0.058018297
000110 2c 81 99 3c b4 0f 77 bd c0 a2 5b 3c f2 b7 2c bd
       0.018738352 -0.06031771 0.013405502 -0.04216761
000120 b8 37 cc bc e0 18 fb 3b 1c ee f2 3c 44 c7 13 bd
       -0.024928913 0.0076628774 0.029654555 -0.036078706
000130 9e 2d 7e 3d 40 54 85 bb c8 e8 0e bd e0 7f a8 3c
       0.062055223 -0.0040688813 -0.034889966 0.020568788
000140 52 1e 09 3d 36 07 3b 3d a0 1b f1 3c c0 27 bf 3b
       0.03347618 0.045661174 0.029432118 0.005833596
000150 f2 b0 72 bd 0c 62 cd bc 3a 1c 0d 3d 3e ef 61 3d
       -0.05925078 -0.025071166 0.034450747 0.0551598
000160 d6 01 68 bd f8 64 52 3c ee db 66 3d 9e 9b 08 bd
       -0.056642376 0.012841456 0.056362085 -0.033351533
000170 5e 80 28 3d 80 df 07 bb 68 d4 40 3d f4 58 1d 3d
       0.041138045 -0.0020732582 0.047077566 0.03841491
000180 22 d7 77 bd 38 b8 77 3c 50 c8 8d 3b 48 70 76 bc
       -0.0605079 0.015119605 0.0043268576 -0.015041418
000190 36 16 3f bd de 1f 60 3d 0c d5 4f 3d 88 dc 3e bd
       -0.04665204 0.05471789 0.050740287 -0.046597034
0001a0 68 d6 43 bc 70 f6 52 3c 2e a8 59 bd 28 2e ec 3c
       -0.011952974 0.012876138 -0.053138904 0.028830603
0001b0 00 56 86 3a 50 05 75 bd a0 60 66 3d 20 a1 6f bc
       0.0010249019 -0.05981952 0.056244493 -0.014625818
0001c0 30 3e fa bc 64 bf 4f bd 88 b4 1a 3c 20 f7 f6 bc
       -0.030547231 -0.050719634 0.009442456 -0.030147135
0001d0 0a 9e 5c bd 70 b6 05 bd 04 7d 24 3d b0 66 bb 3b
       -0.053861655 -0.03264469 0.040158287 0.0057190284
0001e0 52 3e 5c bd 90 cc 7f bc 68 a7 71 3c fc 8b 53 bd
       -0.05377037 -0.015612736 0.014749385 -0.05164717
0001f0 68 78 d6 3c 60 21 8e 3c 2c 46 7d 3d e0 cd 61 3b
       0.026180461 0.017349899 0.0618345 0.0034454986
000200 d0 fd 87 3c f4 49 a8 3c a0 3e 52 bb 6e 95 39 bd
       0.01660052 0.020543076 -0.0032080784 -0.045308523
000210 5a aa 6d 3d 84 e1 b3 3c fe 3e 05 3d a2 95 44 3d
       0.058023788 0.02195812 0.032530777 0.047994263
000220 58 2f 31 bd 38 8c 59 3d c6 94 70 bd 80 91 0c bc
       -0.04325804 0.05311224 -0.05873563 -0.008579612
000230 48 0a 61 3c ec c2 60 3d d0 6f 64 3c e0 94 2f 3c
       0.013735361 0.054873392 0.013942674 0.010716647
000240 40 af 31 3b bc a9 2e 3d 0e 94 13 bd aa 3d 65 3d
       0.0027112514 0.04264234 -0.036029868 0.05596701
000250 88 5b 46 bd c0 2c 34 3c 44 3d e3 3c 02 a0 2f 3d
       -0.048427135 0.010996997 0.027739175 0.042877205
000260 46 6c 2c 3d a0 c1 d8 3c b0 7a 4a 3d 7c a4 f4 bc
       0.042095445 0.026459515 0.04943341 -0.029863589
000270 30 51 89 bb 40 97 4c bd 00 76 92 bb 44 fa e4 bc
       -0.0041905865 -0.04994893 -0.004469633 -0.027951367
000280 68 bf 60 3c 9e 1d 7c 3d 0c 8b d5 bc c8 9a 48 3d
       0.01371751 0.061551683 -0.02606728 0.048975736
000290 d2 98 11 bd 50 87 8f 3b 78 4a 02 3c 78 52 0e bc
       -0.03554613 0.004380144 0.007952325 -0.008686654
0002a0 b0 ab 53 bd 20 24 4f 3c 48 ea 3b bd c4 8d 87 3c
       -0.051677406 0.01264289 -0.045877725 0.016547091
0002b0 36 05 1e 3d 98 07 76 3d ba 12 77 3d c0 4f 36 bd
       0.03857919 0.060065836 0.060320593 -0.04450965
0002c0 f4 28 2c bd b0 73 58 3c 1a f8 1d 3d b8 bf 49 3c
       -0.042031243 0.013211176 0.038566686 0.012313776
0002d0 d0 e5 ae 3b 54 c2 49 3d d0 44 94 3b c6 f9 78 bd
       0.0053374544 0.04925759 0.0045248047 -0.060785078
0002e0 00 b7 68 ba b8 63 f5 bc 40 88 9b 3a b2 7b 59 bd
       -0.0008877367 -0.029954776 0.0011866167 -0.05309648
0002f0 d0 4f 8c bc 80 1d 73 ba 30 b2 03 3c e2 12 46 3d
       -0.017127901 -0.000927411 0.008038089 0.04835785
000300 5c ee 67 bd e2 76 43 3d 64 24 23 3d ac 8a b5 bc
       -0.0566238 0.047720797 0.039829627 -0.02216085
000310 08 aa 68 3c 66 69 6f 3d 60 a0 d1 bb d8 73 bc bc
       0.014200695 0.058450125 -0.006397292 -0.023004457
000320 b8 71 85 3c e0 d2 ef bc 42 4c 3e bd f8 ae 64 3c
       0.016289577 -0.029275358 -0.046459444 0.013957731
000330 c0 b6 51 bc 3c 43 6c bd 20 c5 dd bb 42 5b 32 bd
       -0.012799919 -0.057681307 -0.006767884 -0.04354406
000340 90 c6 78 bd ca 9a 60 bd 10 95 d9 bb cc 88 95 3c
       -0.06073624 -0.05483512 -0.006640084 0.018253706
000350 f4 9e 62 3d aa ea 13 3d b8 06 dc 3c 00 1c 57 39
       0.05532737 0.036112465 0.026858672 0.00020514429
000360 78 a8 48 3c f4 f6 3d bd e8 f1 76 3c 98 64 3a bc
       0.012247197 -0.04637809 0.015072323 -0.0113765225
000370 ea 76 25 bd 28 cb 96 3c e0 bd 6d bd 82 bc 33 bd
       -0.04039661 0.01840742 -0.058042407 -0.043880947
000380 a4 2b 85 bc 80 73 ae 3a 34 f0 1c bd 8c 59 7d bd
       -0.016256161 0.0013309568 -0.038315013 -0.061852977
000390 52 04 09 bd 48 4a 6a bc 7c 29 18 3d f4 36 81 bc
       -0.033451386 -0.014299937 0.037148938 -0.015773274
0003a0 aa ed 6f bd 2c a5 3b bd 10 dd 96 bb 6a a0 20 3d
       -0.058576263 -0.045811817 -0.0046039894 0.039215483
0003b0 88 83 08 3c b8 2c 8b 3c 68 95 77 3c 84 23 f0 3c
       0.008332141 0.016989097 0.015111305 0.02931381
0003c0 ac 46 09 bd 0e fb 45 3d e0 77 77 bc ee 1d 3f 3d
       -0.033514664 0.048335128 -0.015104264 0.046659403
0003d0 b6 f2 37 3d 50 29 f2 3c 3c 46 b9 bc bc b0 f6 bc
       0.0449092 0.029560715 -0.022616498 -0.03011357
0003e0 70 68 5b 3c f4 a3 70 bd be 10 14 3d 80 96 09 3c
       0.013391599 -0.058750108 0.03614878 0.008397698
0003f0 c0 b9 15 bb 48 69 63 bc 3e ef 3c bd 70 72 60 3d
       -0.0022846311 -0.0138800815 -0.046126597 0.054796636

linear_4_0.bias f4 [128]
000000 64 67 73 3d 90 f8 d2 bc b2 28 4e bd 28 3e 08 bc
       0.059424773 -0.02575329 -0.05033178 -0.0083156
000010 20 42 24 bc a8 74 b3 3c 98 2c 4e 3d 40 99 d2 3b
       -0.010025531 0.021906212 0.050335497 0.00642696
000020 aa e3 14 3d 5e 66 01 3d ae 52 11 3d e8 58 0a bc
       0.03634993 0.031591766 0.03547924 -0.008444048
000030 5e 2c 0d bd 88 44 4c 3d 30 c6 cf bc 3c 6f 3a bd
       -0.03446614 0.049870044 -0.025363058 -0.045516238
000040 b4 ce c6 bc 86 6d 10 3d 3a 08 05 3d a4 17 4e bd
       -0.024268486 0.0352607 0.03247855 -0.050315514
000050 86 c3 75 3d 8c dc 72 3d ae a6 7f 3d b8 99 13 bd
       0.06000092 0.05929236 0.062414818 -0.03603527
000060 ba b9 02 3d 44 32 fa 3c 50 3b 35 3d 40 24 b2 bc
       0.031915404 0.030541547 0.044246018 -0.021745801
000070 98 ef 7e bc b4 79 44 bd dc 4e 3f 3d b8 45 44 bc
       -0.015560053 -0.047967628 0.046706066 -0.011979513
000080 04 80 ae bc 70 19 2e 3c 52 c9 74 3d 20 e4 fc bc
       -0.021301277 0.010626182 0.059762307 -0.030870497
000090 cc 96 48 bd 14 f5 49 3d 18 4c bd bc 8c 9a f5 bc
       -0.048971936 0.04930599 -0.023107573 -0.02998092
0000a0 18 49 0a bc b4 47 a1 bc 52 fb 07 3d 22 52 39 bd
       -0.0084402785 -0.019687511 0.033198662 -0.045244344
0000b0 64 ba eb bc d0 5e 60 3d 72 33 3c bd c6 6b 58 3d
       -0.028775401 0.05477792 -0.0459475 0.052837156
0000c0 64 a9 31 bd b8 c7 e3 bc 70 61 c6 3b f8 53 3a 3c
       -0.043374434 -0.027805194 0.006054096 0.011372559
0000d0 04 ca 5a 3d 28 f8 c9 3c 28 7e 46 3d 40 69 ff 3a
       0.053415313 0.024654463 0.048460156 0.0019486323
0000e0 64 f8 ed 3c c4 25 45 3d fe a9 28 bd c0 89 81 3c
       0.029049106 0.04813172 -0.041177742 0.015812755
0000f0 d2 25 32 bd de a3 1d 3d c0 c9 15 bb 6e 36 7f bd
       -0.0434931 0.038486354 -0.0022855848 -0.062307768
000100 8e 43 05 3d 44 d0 04 bd e0 48 74 bd 52 41 6c bd
       0.03253513 -0.03242518 -0.05963981 -0.05767948
000110 b8 ca 3b 3d c4 a3 0d 3d 60 f7 21 bb 4c c0 3b 3d
       0.045847625 0.034580007 -0.0024714097 0.045837685
000120 68 0d 4e 3c f8 48 26 3c f0 4b cd bc c2 2f 0a bd
       0.0125764385 0.010149233 -0.025060624 -0.03373695
000130 08 3c 53 3c 50 82 98 3b 3e b0 66 3d 6c 40 a3 3c
       0.0128927305 0.0046542063 0.05632042 0.01992818
000140 f0 a5 a3 3b a6 2b 42 3d 60 53 7d bc ee ad 3b bd
       0.0049941465 0.047404908 -0.015461773 -0.04582017
000150 d6 93 6a bd 0e fc 06 bd 30 5f 1e bd c4 e3 b0 3c
       -0.057269894 -0.03295522 -0.038664997 0.021592982
000160 1a 57 0e 3d e8 1d 73 3c 90 c7 bb 3c 9e 7d 33 bd
       0.034751035 0.014838673 0.022922307 -0.04382097
000170 28 cd 3e bd 28 78 7f bc b0 b9 c6 bb e4 b1 99 bc
       -0.04658237 -0.015592612 -0.006064616 -0.018761583
000180 94 f1 38 3d 9a a2 30 bd 4c 37 19 3d 5a e8 57 3d
       0.04515226 -0.04312382 0.03740625 0.052711822
000190 30 ea 40 bc b0 c5 69 3d c2 f1 22 3d 3e a9 2b bd
       -0.011774585 0.057073295 0.03978134 -0.04190945
0001a0 c0 11 d6 ba c0 bc 76 bd 38 a2 87 bc 88 84 59 bd
       -0.0016332194 -0.0602386 -0.016556844 -0.053104907
0001b0 80 be ac bc e4 af 03 3d 44 00 8f bc 40 28 37 bb
       -0.021086931 0.032150164 -0.017456181 -0.0027947575
0001c0 a0 78 1e 3c 0c 65 76 bd 42 3b 14 3d ac 02 29 3d
       0.009672314 -0.06015496 0.036189325 0.041262314
0001d0 c8 3f 48 3d 80 8a 75 3c 30 95 09 3d 8c 8a a2 bc
       0.04888895 0.014986634 0.033589542 -0.019841455
0001e0 20 e4 39 bb 5c cc 87 bc a2 e3 5d bd 00 56 ff ba
       -0.0028364733 -0.016576938 -0.054172166 -0.0019480586
0001f0 ce 8d 52 3d 38 6b 64 bc 14 70 ef 3c e0 71 3c 3c
       0.051404767 -0.013941579 0.029228248 0.011501759
